…
      "- This IS expected if you are initializing BertModel from the checkpoint of a model trained on another task or with another architecture (e.g. initializing a BertForSequenceClassification model from a BertForPreTraining model).\n",
      "- This IS NOT expected if you are initializing BertModel from the checkpoint of a model that you expect to be exactly identical (initializing a BertForSequenceClassification model from a BertForSequenceClassification model).\n"
     ]
    },
    {
     "data": {
      "text/plain": [
       "BERT_ABSTRACT(\n",
       "  (bert1): BertModel(\n",
       "    (embeddings): BertEmbeddings(\n",
       "      (word_embeddings): Embedding(30522, 768, padding_idx=0)\n",
       "      (position_embeddings): Embedding(512, 768)\n",
       "      (token_type_embeddings): Embedding(2, 768)\n",
       "      (LayerNorm): LayerNorm((768,), eps=1e-12, elementwise_affine=True)\n",
       "      (dropout): Dropout(p=0.1, inplace=False)\n",
       "    )\n",
       "    (encoder): BertEncoder(\n",
       "      (layer): ModuleList(\n",
       "        (0): BertLayer(\n",
       "          (attention): BertAttention(\n",
       "            (self): BertSelfAttention(\n",
       "              (query): Linear(in_features=768, out_features=768, bias=True)\n",
       "              (key): Linear(in_features=768, out_features=768, bias=True)\n",
       "              (value): Linear(in_features=768, out_features=768, bias=True)\n",
       "              (dropout): Dropout(p=0.1, inplace=False)\n",
       "            )\n",
       "            (output): BertSelfOutput(\n",
       "              (dense): Linear(in_features=768, out_features=768, bias=True)\n",
       "              (LayerNorm): LayerNorm((768,), eps=1e-12, elementwise_affine=True)\n",
       "              (dropout): Dropout(p=0.1, inplace=False)\n",
       "            )\n",
       "          )\n",
       "          (intermediate): BertIntermediate(\n",
       "            (dense): Linear(in_features=768, out_features=3072, bias=True)\n",
       "          )\n",
       "          (output): BertOutput(\n",
       "            (dense): Linear(in_features=3072, out_features=768, bias=True)\n",
       "            (LayerNorm): LayerNorm((768,), eps=1e-12, elementwise_affine=True)\n",
       "            (dropout): Dropout(p=0.1, inplace=False)\n",
       "          )\n",
       "        )\n",
       "        (1): BertLayer(\n",
       "          (attention): BertAttention(\n",
       "            (self): BertSelfAttention(\n",
       "              (query): Linear(in_features=768, out_features=768, bias=True)\n",
       "              (key): Linear(in_features=768, out_features=768, bias=True)\n",
       "              (value): Linear(in_features=768, out_features=768, bias=True)\n",
       "              (dropout): Dropout(p=0.1, inplace=False)\n",
       "            )\n",
       "            (output): BertSelfOutput(\n",
       "              (dense): Linear(in_features=768, out_features=768, bias=True)\n",
       "              (LayerNorm): LayerNorm((768,), eps=1e-12, elementwise_affine=True)\n",
       "              (dropout): Dropout(p=0.1, inplace=False)\n",
       "            )\n",
       "          )\n",
       "          (intermediate): BertIntermediate(\n",
       "            (dense): Linear(in_features=768, out_features=3072, bias=True)\n",
       "          )\n",
       "          (output): BertOutput(\n",
       "            (dense): Linear(in_features=3072, out_features=768, bias=True)\n",
       "            (LayerNorm): LayerNorm((768,), eps=1e-12, elementwise_affine=True)\n",
       "            (dropout): Dropout(p=0.1, inplace=False)\n",
       "          )\n",
       "        )\n",
       "        (2): BertLayer(\n",
       "          (attention): BertAttention(\n",
       "            (self): BertSelfAttention(\n",
       "              (query): Linear(in_features=768, out_features=768, bias=True)\n",
       "              (key): Linear(in_features=768, out_features=768, bias=True)\n",
       "              (value): Linear(in_features=768, out_features=768, bias=True)\n",
       "              (dropout): Dropout(p=0.1, inplace=False)\n",
       "            )\n",
       "            (output): BertSelfOutput(\n",
       "              (dense): Linear(in_features=768, out_features=768, bias=True)\n",
       "              (LayerNorm): LayerNorm((768,), eps=1e-12, elementwise_affine=True)\n",
       "              (dropout): Dropout(p=0.1, inplace=False)\n",
       "            )\n",
       "          )\n",
       "          (intermediate): BertIntermediate(\n",
       "            (dense): Linear(in_features=768, out_features=3072, bias=True)\n",
       "          )\n",
       "          (output): BertOutput(\n",
       "            (dense): Linear(in_features=3072, out_features=768, bias=True)\n",
       "            (LayerNorm): LayerNorm((768,), eps=1e-12, elementwise_affine=True)\n",
       "            (dropout): Dropout(p=0.1, inplace=False)\n",
       "          )\n",
       "        )\n",
       "        (3): BertLayer(\n",
       "          (attention): BertAttention(\n",
       "            (self): BertSelfAttention(\n",
       "              (query): Linear(in_features=768, out_features=768, bias=True)\n",
       "              (key): Linear(in_features=768, out_features=768, bias=True)\n",
       "              (value): Linear(in_features=768, out_features=768, bias=True)\n",
       "              (dropout): Dropout(p=0.1, inplace=False)\n",
       "            )\n",
       "            (output): BertSelfOutput(\n",
       "              (dense): Linear(in_features=768, out_features=768, bias=True)\n",
       "              (LayerNorm): LayerNorm((768,), eps=1e-12, elementwise_affine=True)\n",
       "              (dropout): Dropout(p=0.1, inplace=False)\n",
       "            )\n",
       "          )\n",
       "          (intermediate): BertIntermediate(\n",
       "            (dense): Linear(in_features=768, out_features=3072, bias=True)\n",
       "          )\n",
       "          (output): BertOutput(\n",
       "            (dense): Linear(in_features=3072, out_features=768, bias=True)\n",
       "            (LayerNorm): LayerNorm((768,), eps=1e-12, elementwise_affine=True)\n",
       "            (dropout): Dropout(p=0.1, inplace=False)\n",
       "          )\n",
       "        )\n",
       "        (4): BertLayer(\n",
       "          (attention): BertAttention(\n",
       "            (self): BertSelfAttention(\n",
       "              (query): Linear(in_features=768, out_features=768, bias=True)\n",
       "              (key): Linear(in_features=768, out_features=768, bias=True)\n",
       "              (value): Linear(in_features=768, out_features=768, bias=True)\n",
       "              (dropout): Dropout(p=0.1, inplace=False)\n",
       "            )\n",
       "            (output): BertSelfOutput(\n",
       "              (dense): Linear(in_features=768, out_features=768, bias=True)\n",
       "              (LayerNorm): LayerNorm((768,), eps=1e-12, elementwise_affine=True)\n",
       "              (dropout): Dropout(p=0.1, inplace=False)\n",
       "            )\n",
       "          )\n",
       "          (intermediate): BertIntermediate(\n",
       "            (dense): Linear(in_features=768, out_features=3072, bias=True)\n",
       "          )\n",
       "          (output): BertOutput(\n",
       "            (dense): Linear(in_features=3072, out_features=768, bias=True)\n",
       "            (LayerNorm): LayerNorm((768,), eps=1e-12, elementwise_affine=True)\n",
       "            (dropout): Dropout(p=0.1, inplace=False)\n",
       "          )\n",
       "        )\n",
       "        (5): BertLayer(\n",
       "          (attention): BertAttention(\n",
       "            (self): BertSelfAttention(\n",
       "              (query): Linear(in_features=768, out_features=768, bias=True)\n",
       "              (key): Linear(in_features=768, out_features=768, bias=True)\n",
       "              (value): Linear(in_features=768, out_features=768, bias=True)\n",
       "              (dropout): Dropout(p=0.1, inplace=False)\n",
       "            )\n",
       "            (output): BertSelfOutput(\n",
       "              (dense): Linear(in_features=768, out_features=768, bias=True)\n",
       "              (LayerNorm): LayerNorm((768,), eps=1e-12, elementwise_affine=True)\n",
       "              (dropout): Dropout(p=0.1, inplace=False)\n",
       "            )\n",
       "          )\n",
       "          (intermediate): BertIntermediate(\n",
       "            (dense): Linear(in_features=768, out_features=3072, bias=True)\n",
       "          )\n",
       "          (output): BertOutput(\n",
       "            (dense): Linear(in_features=3072, out_features=768, bias=True)\n",
       "            (LayerNorm): LayerNorm((768,), eps=1e-12, elementwise_affine=True)\n",
       "            (dropout): Dropout(p=0.1, inplace=False)\n",
       "          )\n",
       "        )\n",
       "        (6): BertLayer(\n",
       "          (attention): BertAttention(\n",
       "            (self): BertSelfAttention(\n",
       "              (query): Linear(in_features=768, out_features=768, bias=True)\n",
       "              (key): Linear(in_features=768, out_features=768, bias=True)\n",
       "              (value): Linear(in_features=768, out_features=768, bias=True)\n",
       "              (dropout): Dropout(p=0.1, inplace=False)\n",
       "            )\n",
       "            (output): BertSelfOutput(\n",
       "              (dense): Linear(in_features=768, out_features=768, bias=True)\n",
       "              (LayerNorm): LayerNorm((768,), eps=1e-12, elementwise_affine=True)\n",
       "              (dropout): Dropout(p=0.1, inplace=False)\n",
       "            )\n",
       "          )\n",
       "          (intermediate): BertIntermediate(\n",
       "            (dense): Linear(in_features=768, out_features=3072, bias=True)\n",
       "          )\n",
       "          (output): BertOutput(\n",
       "            (dense): Linear(in_features=3072, out_features=768, bias=True)\n",
       "            (LayerNorm): LayerNorm((768,), eps=1e-12, elementwise_affine=True)\n",
       "            (dropout): Dropout(p=0.1, inplace=False)\n",
       "          )\n",
       "        )\n",
       "        (7): BertLayer(\n",
       "          (attention): BertAttention(\n",
       "            (self): BertSelfAttention(\n",
       "              (query): Linear(in_features=768, out_features=768, bias=True)\n",
       "              (key): Linear(in_features=768, out_features=768, bias=True)\n",
       "              (value): Linear(in_features=768, out_features=768, bias=True)\n",
       "              (dropout): Dropout(p=0.1, inplace=False)\n",
       "            )\n",
       "            (output): BertSelfOutput(\n",
       "              (dense): Linear(in_features=768, out_features=768, bias=True)\n",
       "              (LayerNorm): LayerNorm((768,), eps=1e-12, elementwise_affine=True)\n",
       "              (dropout): Dropout(p=0.1, inplace=False)\n",
       "            )\n",
       "          )\n",
       "          (intermediate): BertIntermediate(\n",
       "            (dense): Linear(in_features=768, out_features=3072, bias=True)\n",
       "          )\n",
       "          (output): BertOutput(\n",
       "            (dense): Linear(in_features=3072, out_features=768, bias=True)\n",
       "            (LayerNorm): LayerNorm((768,), eps=1e-12, elementwise_affine=True)\n",
       "            (dropout): Dropout(p=0.1, inplace=False)\n",
       "          )\n",
       "        )\n",
       "        (8): BertLayer(\n",
       "          (attention): BertAttention(\n",
       "            (self): BertSelfAttention(\n",
       "              (query): Linear(in_features=768, out_features=768, bias=True)\n",
       "              (key): Linear(in_features=768, out_features=768, bias=True)\n",
       "              (value): Linear(in_features=768, out_features=768, bias=True)\n",
       "              (dropout): Dropout(p=0.1, inplace=False)\n",
       "            )\n",
       "            (output): BertSelfOutput(\n",
       "              (dense): Linear(in_features=768, out_features=768, bias=True)\n",
       "              (LayerNorm): LayerNorm((768,), eps=1e-12, elementwise_affine=True)\n",
       "              (dropout): Dropout(p=0.1, inplace=False)\n",
       "            )\n",
       "          )\n",
       "          (intermediate): BertIntermediate(\n",
       "            (dense): Linear(in_features=768, out_features=3072, bias=True)\n",
       "          )\n",
       "          (output): BertOutput(\n",
       "            (dense): Linear(in_features=3072, out_features=768, bias=True)\n",
       "            (LayerNorm): LayerNorm((768,), eps=1e-12, elementwise_affine=True)\n",
       "            (dropout): Dropout(p=0.1, inplace=False)\n",
       "          )\n",
       "        )\n",
       "        (9): BertLayer(\n",
       "          (attention): BertAttention(\n",
       "            (self): BertSelfAttention(\n",
       "              (query): Linear(in_features=768, out_features=768, bias=True)\n",
       "              (key): Linear(in_features=768, out_features=768, bias=True)\n",
       "              (value): Linear(in_features=768, out_features=768, bias=True)\n",
       "              (dropout): Dropout(p=0.1, inplace=False)\n",
       "            )\n",
       "            (output): BertSelfOutput(\n",
       "              (dense): Linear(in_features=768, out_features=768, bias=True)\n",
       "              (LayerNorm): LayerNorm((768,), eps=1e-12, elementwise_affine=True)\n",
       "              (dropout): Dropout(p=0.1, inplace=False)\n",
       "            )\n",
       "          )\n",
       "          (intermediate): BertIntermediate(\n",
       "            (dense): Linear(in_features=768, out_features=3072, bias=True)\n",
       "          )\n",
       "          (output): BertOutput(\n",
       "            (dense): Linear(in_features=3072, out_features=768, bias=True)\n",
       "            (LayerNorm): LayerNorm((768,), eps=1e-12, elementwise_affine=True)\n",
       "            (dropout): Dropout(p=0.1, inplace=False)\n",
       "          )\n",
       "        )\n",
       "        (10): BertLayer(\n",
       "          (attention): BertAttention(\n",
       "            (self): BertSelfAttention(\n",
       "              (query): Linear(in_features=768, out_features=768, bias=True)\n",
       "              (key): Linear(in_features=768, out_features=768, bias=True)\n",
       "              (value): Linear(in_features=768, out_features=768, bias=True)\n",
       "              (dropout): Dropout(p=0.1, inplace=False)\n",
       "            )\n",
       "            (output): BertSelfOutput(\n",
       "              (dense): Linear(in_features=768, out_features=768, bias=True)\n",
       "              (LayerNorm): LayerNorm((768,), eps=1e-12, elementwise_affine=True)\n",
       "              (dropout): Dropout(p=0.1, inplace=False)\n",
       "            )\n",
       "          )\n",
       "          (intermediate): BertIntermediate(\n",
       "            (dense): Linear(in_features=768, out_features=3072, bias=True)\n",
       "          )\n",
       "          (output): BertOutput(\n",
       "            (dense): Linear(in_features=3072, out_features=768, bias=True)\n",
       "            (LayerNorm): LayerNorm((768,), eps=1e-12, elementwise_affine=True)\n",
       "            (dropout): Dropout(p=0.1, inplace=False)\n",
       "          )\n",
       "        )\n",
       "        (11): BertLayer(\n",
       "          (attention): BertAttention(\n",
       "            (self): BertSelfAttention(\n",
       "              (query): Linear(in_features=768, out_features=768, bias=True)\n",
       "              (key): Linear(in_features=768, out_features=768, bias=True)\n",
       "              (value): Linear(in_features=768, out_features=768, bias=True)\n",
       "              (dropout): Dropout(p=0.1, inplace=False)\n",
       "            )\n",
       "            (output): BertSelfOutput(\n",
       "              (dense): Linear(in_features=768, out_features=768, bias=True)\n",
       "              (LayerNorm): LayerNorm((768,), eps=1e-12, elementwise_affine=True)\n",
       "              (dropout): Dropout(p=0.1, inplace=False)\n",
       "            )\n",
       "          )\n",
       "          (intermediate): BertIntermediate(\n",
       "            (dense): Linear(in_features=768, out_features=3072, bias=True)\n",
       "          )\n",
       "          (output): BertOutput(\n",
       "            (dense): Linear(in_features=3072, out_features=768, bias=True)\n",
       "            (LayerNorm): LayerNorm((768,), eps=1e-12, elementwise_affine=True)\n",
       "            (dropout): Dropout(p=0.1, inplace=False)\n",
       "          )\n",
       "        )\n",
       "      )\n",
       "    )\n",
       "    (pooler): BertPooler(\n",
       "      (dense): Linear(in_features=768, out_features=768, bias=True)\n",
       "      (activation): Tanh()\n",
       "    )\n",
       "  )\n",
       "  (bert2): BertModel(\n",
       "    (embeddings): BertEmbeddings(\n",
       "      (word_embeddings): Embedding(30522, 768, padding_idx=0)\n",
       "      (position_embeddings): Embedding(512, 768)\n",
       "      (token_type_embeddings): Embedding(2, 768)\n",
       "      (LayerNorm): LayerNorm((768,), eps=1e-12, elementwise_affine=True)\n",
       "      (dropout): Dropout(p=0.1, inplace=False)\n",
       "    )\n",
       "    (encoder): BertEncoder(\n",
       "      (layer): ModuleList(\n",
       "        (0): BertLayer(\n",
       "          (attention): BertAttention(\n",
       "            (self): BertSelfAttention(\n",
       "              (query): Linear(in_features=768, out_features=768, bias=True)\n",
       "              (key): Linear(in_features=768, out_features=768, bias=True)\n",
       "              (value): Linear(in_features=768, out_features=768, bias=True)\n",
       "              (dropout): Dropout(p=0.1, inplace=False)\n",
       "            )\n",
       "            (output): BertSelfOutput(\n",
       "              (dense): Linear(in_features=768, out_features=768, bias=True)\n",
       "              (LayerNorm): LayerNorm((768,), eps=1e-12, elementwise_affine=True)\n",
       "              (dropout): Dropout(p=0.1, inplace=False)\n",
       "            )\n",
       "          )\n",
       "          (intermediate): BertIntermediate(\n",
       "            (dense): Linear(in_features=768, out_features=3072, bias=True)\n",
       "          )\n",
       "          (output): BertOutput(\n",
       "            (dense): Linear(in_features=3072, out_features=768, bias=True)\n",
       "            (LayerNorm): LayerNorm((768,), eps=1e-12, elementwise_affine=True)\n",
       "            (dropout): Dropout(p=0.1, inplace=False)\n",
       "          )\n",
       "        )\n",
       "        (1): BertLayer(\n",
       "          (attention): BertAttention(\n",
       "            (self): BertSelfAttention(\n",
       "              (query): Linear(in_features=768, out_features=768, bias=True)\n",
       "              (key): Linear(in_features=768, out_features=768, bias=True)\n",
       "              (value): Linear(in_features=768, out_features=768, bias=True)\n",
       "              (dropout): Dropout(p=0.1, inplace=False)\n",
       "            )\n",
       "            (output): BertSelfOutput(\n",
       "              (dense): Linear(in_features=768, out_features=768, bias=True)\n",
       "              (LayerNorm): LayerNorm((768,), eps=1e-12, elementwise_affine=True)\n",
       "              (dropout): Dropout(p=0.1, inplace=False)\n",
       "            )\n",
       "          )\n",
       "          (intermediate): BertIntermediate(\n",
       "            (dense): Linear(in_features=768, out_features=3072, bias=True)\n",
       "          )\n",
       "          (output): BertOutput(\n",
       "            (dense): Linear(in_features=3072, out_features=768, bias=True)\n",
       "            (LayerNorm): LayerNorm((768,), eps=1e-12, elementwise_affine=True)\n",
       "            (dropout): Dropout(p=0.1, inplace=False)\n",
       "          )\n",
       "        )\n",
       "        (2): BertLayer(\n",
       "          (attention): BertAttention(\n",
       "            (self): BertSelfAttention(\n",
       "              (query): Linear(in_features=768, out_features=768, bias=True)\n",
       "              (key): Linear(in_features=768, out_features=768, bias=True)\n",
       "              (value): Linear(in_features=768, out_features=768, bias=True)\n",
       "              (dropout): Dropout(p=0.1, inplace=False)\n",
       "            )\n",
       "            (output): BertSelfOutput(\n",
       "              (dense): Linear(in_features=768, out_features=768, bias=True)\n",
       "              (LayerNorm): LayerNorm((768,), eps=1e-12, elementwise_affine=True)\n",
       "              (dropout): Dropout(p=0.1, inplace=False)\n",
       "            )\n",
       "          )\n",
       "          (intermediate): BertIntermediate(\n",
       "            (dense): Linear(in_features=768, out_features=3072, bias=True)\n",
       "          )\n",
       "          (output): BertOutput(\n",
       "            (dense): Linear(in_features=3072, out_features=768, bias=True)\n",
       "            (LayerNorm): LayerNorm((768,), eps=1e-12, elementwise_affine=True)\n",
       "            (dropout): Dropout(p=0.1, inplace=False)\n",
       "          )\n",
       "        )\n",
       "        (3): BertLayer(\n",
       "          (attention): BertAttention(\n",
       "            (self): BertSelfAttention(\n",
       "              (query): Linear(in_features=768, out_features=768, bias=True)\n",
       "              (key): Linear(in_features=768, out_features=768, bias=True)\n",
       "              (value): Linear(in_features=768, out_features=768, bias=True)\n",
       "              (dropout): Dropout(p=0.1, inplace=False)\n",
       "            )\n",
       "            (output): BertSelfOutput(\n",
       "              (dense): Linear(in_features=768, out_features=768, bias=True)\n",
       "              (LayerNorm): LayerNorm((768,), eps=1e-12, elementwise_affine=True)\n",
       "              (dropout): Dropout(p=0.1, inplace=False)\n",
       "            )\n",
       "          )\n",
       "          (intermediate): BertIntermediate(\n",
       "            (dense): Linear(in_features=768, out_features=3072, bias=True)\n",
       "          )\n",
       "          (output): BertOutput(\n",
       "            (dense): Linear(in_features=3072, out_features=768, bias=True)\n",
       "            (LayerNorm): LayerNorm((768,), eps=1e-12, elementwise_affine=True)\n",
       "            (dropout): Dropout(p=0.1, inplace=False)\n",
       "          )\n",
       "        )\n",
       "        (4): BertLayer(\n",
       "          (attention): BertAttention(\n",
       "            (self): BertSelfAttention(\n",
       "              (query): Linear(in_features=768, out_features=768, bias=True)\n",
       "              (key): Linear(in_features=768, out_features=768, bias=True)\n",
       "              (value): Linear(in_features=768, out_features=768, bias=True)\n",
       "              (dropout): Dropout(p=0.1, inplace=False)\n",
       "            )\n",
       "            (output): BertSelfOutput(\n",
       "              (dense): Linear(in_features=768, out_features=768, bias=True)\n",
       "              (LayerNorm): LayerNorm((768,), eps=1e-12, elementwise_affine=True)\n",
       "              (dropout): Dropout(p=0.1, inplace=False)\n",
       "            )\n",
       "          )\n",
       "          (intermediate): BertIntermediate(\n",
       "            (dense): Linear(in_features=768, out_features=3072, bias=True)\n",
       "          )\n",
       "          (output): BertOutput(\n",
       "            (dense): Linear(in_features=3072, out_features=768, bias=True)\n",
       "            (LayerNorm): LayerNorm((768,), eps=1e-12, elementwise_affine=True)\n",
       "            (dropout): Dropout(p=0.1, inplace=False)\n",
       "          )\n",
       "        )\n",
       "        (5): BertLayer(\n",
       "          (attention): BertAttention(\n",
       "            (self): BertSelfAttention(\n",
       "              (query): Linear(in_features=768, out_features=768, bias=True)\n",
       "              (key): Linear(in_features=768, out_features=768, bias=True)\n",
       "              (value): Linear(in_features=768, out_features=768, bias=True)\n",
       "              (dropout): Dropout(p=0.1, inplace=False)\n",
       "            )\n",
       "            (output): BertSelfOutput(\n",
       "              (dense): Linear(in_features=768, out_features=768, bias=True)\n",
       "              (LayerNorm): LayerNorm((768,), eps=1e-12, elementwise_affine=True)\n",
       "              (dropout): Dropout(p=0.1, inplace=False)\n",
       "            )\n",
       "          )\n",
       "          (intermediate): BertIntermediate(\n",
       "            (dense): Linear(in_features=768, out_features=3072, bias=True)\n",
       "          )\n",
       "          (output): BertOutput(\n",
       "            (dense): Linear(in_features=3072, out_features=768, bias=True)\n",
       "            (LayerNorm): LayerNorm((768,), eps=1e-12, elementwise_affine=True)\n",
       "            (dropout): Dropout(p=0.1, inplace=False)\n",
       "          )\n",
       "        )\n",
       "        (6): BertLayer(\n",
       "          (attention): BertAttention(\n",
       "            (self): BertSelfAttention(\n",
       "              (query): Linear(in_features=768, out_features=768, bias=True)\n",
       "              (key): Linear(in_features=768, out_features=768, bias=True)\n",
       "              (value): Linear(in_features=768, out_features=768, bias=True)\n",
       "              (dropout): Dropout(p=0.1, inplace=False)\n",
       "            )\n",
       "            (output): BertSelfOutput(\n",
       "              (dense): Linear(in_features=768, out_features=768, bias=True)\n",
       "              (LayerNorm): LayerNorm((768,), eps=1e-12, elementwise_affine=True)\n",
       "              (dropout): Dropout(p=0.1, inplace=False)\n",
       "            )\n",
       "          )\n",
       "          (intermediate): BertIntermediate(\n",
       "            (dense): Linear(in_features=768, out_features=3072, bias=True)\n",
       "          )\n",
       "          (output): BertOutput(\n",
       "            (dense): Linear(in_features=3072, out_features=768, bias=True)\n",
       "            (LayerNorm): LayerNorm((768,), eps=1e-12, elementwise_affine=True)\n",
       "            (dropout): Dropout(p=0.1, inplace=False)\n",
       "          )\n",
       "        )\n",
       "        (7): BertLayer(\n",
       "          (attention): BertAttention(\n",
       "            (self): BertSelfAttention(\n",
       "              (query): Linear(in_features=768, out_features=768, bias=True)\n",
       "              (key): Linear(in_features=768, out_features=768, bias=True)\n",
       "              (value): Linear(in_features=768, out_features=768, bias=True)\n",
       "              (dropout): Dropout(p=0.1, inplace=False)\n",
       "            )\n",
       "            (output): BertSelfOutput(\n",
       "              (dense): Linear(in_features=768, out_features=768, bias=True)\n",
       "              (LayerNorm): LayerNorm((768,), eps=1e-12, elementwise_affine=True)\n",
       "              (dropout): Dropout(p=0.1, inplace=False)\n",
       "            )\n",
       "          )\n",
       "          (intermediate): BertIntermediate(\n",
       "            (dense): Linear(in_features=768, out_features=3072, bias=True)\n",
       "          )\n",
       "          (output): BertOutput(\n",
       "            (dense): Linear(in_features=3072, out_features=768, bias=True)\n",
       "            (LayerNorm): LayerNorm((768,), eps=1e-12, elementwise_affine=True)\n",
       "            (dropout): Dropout(p=0.1, inplace=False)\n",
       "          )\n",
       "        )\n",
       "        (8): BertLayer(\n",
       "          (attention): BertAttention(\n",
       "            (self): BertSelfAttention(\n",
       "              (query): Linear(in_features=768, out_features=768, bias=True)\n",
       "              (key): Linear(in_features=768, out_features=768, bias=True)\n",
       "              (value): Linear(in_features=768, out_features=768, bias=True)\n",
       "              (dropout): Dropout(p=0.1, inplace=False)\n",
       "            )\n",
       "            (output): BertSelfOutput(\n",
       "              (dense): Linear(in_features=768, out_features=768, bias=True)\n",
       "              (LayerNorm): LayerNorm((768,), eps=1e-12, elementwise_affine=True)\n",
       "              (dropout): Dropout(p=0.1, inplace=False)\n",
       "            )\n",
       "          )\n",
       "          (intermediate): BertIntermediate(\n",
       "            (dense): Linear(in_features=768, out_features=3072, bias=True)\n",
       "          )\n",
       "          (output): BertOutput(\n",
       "            (dense): Linear(in_features=3072, out_features=768, bias=True)\n",
       "            (LayerNorm): LayerNorm((768,), eps=1e-12, elementwise_affine=True)\n",
       "            (dropout): Dropout(p=0.1, inplace=False)\n",
       "          )\n",
       "        )\n",
       "        (9): BertLayer(\n",
       "          (attention): BertAttention(\n",
       "            (self): BertSelfAttention(\n",
       "              (query): Linear(in_features=768, out_features=768, bias=True)\n",
       "              (key): Linear(in_features=768, out_features=768, bias=True)\n",
       "              (value): Linear(in_features=768, out_features=768, bias=True)\n",
       "              (dropout): Dropout(p=0.1, inplace=False)\n",
       "            )\n",
       "            (output): BertSelfOutput(\n",
       "              (dense): Linear(in_features=768, out_features=768, bias=True)\n",
       "              (LayerNorm): LayerNorm((768,), eps=1e-12, elementwise_affine=True)\n",
       "              (dropout): Dropout(p=0.1, inplace=False)\n",
       "            )\n",
       "          )\n",
       "          (intermediate): BertIntermediate(\n",
       "            (dense): Linear(in_features=768, out_features=3072, bias=True)\n",
       "          )\n",
       "          (output): BertOutput(\n",
       "            (dense): Linear(in_features=3072, out_features=768, bias=True)\n",
       "            (LayerNorm): LayerNorm((768,), eps=1e-12, elementwise_affine=True)\n",
       "            (dropout): Dropout(p=0.1, inplace=False)\n",
       "          )\n",
       "        )\n",
       "        (10): BertLayer(\n",
       "          (attention): BertAttention(\n",
       "            (self): BertSelfAttention(\n",
       "              (query): Linear(in_features=768, out_features=768, bias=True)\n",
       "              (key): Linear(in_features=768, out_features=768, bias=True)\n",
       "              (value): Linear(in_features=768, out_features=768, bias=True)\n",
       "              (dropout): Dropout(p=0.1, inplace=False)\n",
       "            )\n",
       "            (output): BertSelfOutput(\n",
       "              (dense): Linear(in_features=768, out_features=768, bias=True)\n",
       "              (LayerNorm): LayerNorm((768,), eps=1e-12, elementwise_affine=True)\n",
       "              (dropout): Dropout(p=0.1, inplace=False)\n",
       "            )\n",
       "          )\n",
       "          (intermediate): BertIntermediate(\n",
       "            (dense): Linear(in_features=768, out_features=3072, bias=True)\n",
       "          )\n",
       "          (output): BertOutput(\n",
       "            (dense): Linear(in_features=3072, out_features=768, bias=True)\n",
       "            (LayerNorm): LayerNorm((768,), eps=1e-12, elementwise_affine=True)\n",
       "            (dropout): Dropout(p=0.1, inplace=False)\n",
       "          )\n",
       "        )\n",
       "        (11): BertLayer(\n",
       "          (attention): BertAttention(\n",
       "            (self): BertSelfAttention(\n",
       "              (query): Linear(in_features=768, out_features=768, bias=True)\n",
       "              (key): Linear(in_features=768, out_features=768, bias=True)\n",
       "              (value): Linear(in_features=768, out_features=768, bias=True)\n",
       "              (dropout): Dropout(p=0.1, inplace=False)\n",
       "            )\n",
       "            (output): BertSelfOutput(\n",
       "              (dense): Linear(in_features=768, out_features=768, bias=True)\n",
       "              (LayerNorm): LayerNorm((768,), eps=1e-12, elementwise_affine=True)\n",
       "              (dropout): Dropout(p=0.1, inplace=False)\n",
       "            )\n",
       "          )\n",
       "          (intermediate): BertIntermediate(\n",
       "            (dense): Linear(in_features=768, out_features=3072, bias=True)\n",
       "          )\n",
       "          (output): BertOutput(\n",
       "            (dense): Linear(in_features=3072, out_features=768, bias=True)\n",
       "            (LayerNorm): LayerNorm((768,), eps=1e-12, elementwise_affine=True)\n",
       "            (dropout): Dropout(p=0.1, inplace=False)\n",
       "          )\n",
       "        )\n",
       "      )\n",
       "    )\n",
       "    (pooler): BertPooler(\n",
       "      (dense): Linear(in_features=768, out_features=768, bias=True)\n",
       "      (activation): Tanh()\n",
       "    )\n",
       "  )\n",
       "  (fc1): Linear(in_features=1536, out_features=768, bias=True)\n",
       "  (batchnorm1): BatchNorm1d(768, eps=1e-05, momentum=0.1, affine=True, track_running_stats=True)\n",
       "  (fc2): Linear(in_features=768, out_features=256, bias=True)\n",
       "  (batchnorm2): BatchNorm1d(256, eps=1e-05, momentum=0.1, affine=True, track_running_stats=True)\n",
       "  (fc3): Linear(in_features=256, out_features=1, bias=True)\n",
       "  (activation): Sigmoid()\n",
       ")"
      ]
     },
     "execution_count": 21,
     "metadata": {},
     "output_type": "execute_result"
    }
   ],
   "source": [
    "model = BERT_ABSTRACT() \n",
    "\n",
    "model.cuda() "
   ]
  },
  {
   "cell_type": "markdown",
   "metadata": {},
   "source": [
    "# Train"
   ]
  },
  {
   "cell_type": "code",
…
